…
2022-06-16 15:16:40,481 - GeForce RTX 2080 Ti 	 Memory: 10.76GB
2022-06-16 15:16:41,995 - GeForce RTX 2080 Ti 	 Memory: 10.76GB
2022-06-16 15:16:43,611 - GeForce RTX 2080 Ti 	 Memory: 10.76GB
2022-06-16 15:58:25,561 - 950 training examples, 50 val examples, 50 test examples
2022-06-16 15:58:25,703 - DistributedDataParallel(
  (module): CombinedSpatiotemporalModel(
    (spatial_model): IndependentCNF(
      squash_time=False
      (cnf): TimeVariableCNF(
        method=dopri5, tol=0.0001, energy=0.0001, jacnorm=0.0001
        (func): SequentialDiffEq(
          (layers): ModuleList(
            (0): ConcatLinear_v2(
              (_layer): Linear(in_features=2, out_features=64, bias=True)
              (_hyper_bias): Linear(in_features=1, out_features=64, bias=False)
            )
            (1): TimeDependentSwish(
              (beta): Sequential(
                (0): Linear(in_features=1, out_features=64, bias=True)
                (1): Softplus(beta=1, threshold=20)
                (2): Linear(in_features=64, out_features=64, bias=True)
                (3): Softplus(beta=1, threshold=20)
              )
            )
            (2): ConcatLinear_v2(
              (_layer): Linear(in_features=64, out_features=64, bias=True)
              (_hyper_bias): Linear(in_features=1, out_features=64, bias=False)
            )
            (3): TimeDependentSwish(
              (beta): Sequential(
                (0): Linear(in_features=1, out_features=64, bias=True)
                (1): Softplus(beta=1, threshold=20)
                (2): Linear(in_features=64, out_features=64, bias=True)
                (3): Softplus(beta=1, threshold=20)
              )
            )
            (4): ConcatLinear_v2(
              (_layer): Linear(in_features=64, out_features=64, bias=True)
              (_hyper_bias): Linear(in_features=1, out_features=64, bias=False)
            )
            (5): TimeDependentSwish(
              (beta): Sequential(
                (0): Linear(in_features=1, out_features=64, bias=True)
                (1): Softplus(beta=1, threshold=20)
                (2): Linear(in_features=64, out_features=64, bias=True)
                (3): Softplus(beta=1, threshold=20)
              )
            )
            (6): ConcatLinear_v2(
              (_layer): Linear(in_features=64, out_features=2, bias=True)
              (_hyper_bias): Linear(in_features=1, out_features=2, bias=False)
            )
          )
        )
      )
    )
    (temporal_model): HomogeneousPoissonPointProcess()
  )
)
2022-06-16 15:58:26,481 - Iter 0 | Epoch 0 | LR 0.00100 | Time 0.8 | Temporal -1.9341(-1.9341) | Spatial -2.9206(-2.9206) | GradNorm 10.99(10.99) | NFE 64 | Mem 3249.49 MB
2022-06-16 15:58:27,038 - [Test] Iter 0 | Val Temporal -1.8448 | Val Spatial -2.9160 | Test Temporal -1.8406 | Test Spatial -2.7876
…
