…
2022-07-10 20:49:17,637 - GeForce RTX 2080 Ti 	 Memory: 10.76GB
2022-07-10 20:49:17,637 - GeForce RTX 2080 Ti 	 Memory: 10.76GB
2022-07-10 20:49:21,561 - 950 training examples, 50 val examples, 50 test examples
2022-07-10 20:49:25,596 - DistributedDataParallel(
  (module): JumpCNFSpatiotemporalModel(
    (temporal_model): NeuralPointProcess(
      (hidden_state_dynamics): HiddenStateODEFuncList(
        (odefuncs): ModuleList(
          (0): GRUHiddenStateODEFunc(
            (dstate_net): SequentialDiffEq(
              (layers): ModuleList(
                (0): ConcatLinear_v2(
                  (_layer): Linear(in_features=32, out_features=32, bias=True)
                  (_hyper_bias): Linear(in_features=1, out_features=32, bias=False)
                )
                (1): ActNorm(32)
                (2): Softplus(beta=1, threshold=20)
                (3): ConcatLinear_v2(
                  (_layer): Linear(in_features=32, out_features=32, bias=True)
                  (_hyper_bias): Linear(in_features=1, out_features=32, bias=False)
                )
              )
            )
            (update_net): GRUCell(2, 32)
          )
        )
      )
      (ode_solver): TimeVariableODE(
        method=dopri5, atol=0.0001, rtol=0.0001, energy=0.0001
        (func): IntensityODEFunc(
          (dstate_fn): HiddenStateODEFuncList(
            (odefuncs): ModuleList(
              (0): GRUHiddenStateODEFunc(
                (dstate_net): SequentialDiffEq(
                  (layers): ModuleList(
                    (0): ConcatLinear_v2(
                      (_layer): Linear(in_features=32, out_features=32, bias=True)
                      (_hyper_bias): Linear(in_features=1, out_features=32, bias=False)
                    )
                    (1): ActNorm(32)
                    (2): Softplus(beta=1, threshold=20)
                    (3): ConcatLinear_v2(
                      (_layer): Linear(in_features=32, out_features=32, bias=True)
                      (_hyper_bias): Linear(in_features=1, out_features=32, bias=False)
                    )
                  )
                )
                (update_net): GRUCell(2, 32)
              )
            )
          )
          (intensity_fn): Sequential(
            (0): Linear(in_features=16, out_features=64, bias=True)
            (1): Softplus(beta=1, threshold=20)
            (2): Linear(in_features=64, out_features=1, bias=True)
          )
        )
      )
    )
    (spatial_model): JumpCNF(
      (cnf): TimeVariableCNF(
        method=dopri5, tol=0.0001, energy=0.0001, jacnorm=0.0001
        (func): AuxODEFunc(
          (func): SequentialDiffEq(
            (layers): ModuleList(
              (0): ConcatLinear_v2(
                (_layer): Linear(in_features=18, out_features=64, bias=True)
                (_hyper_bias): Linear(in_features=1, out_features=64, bias=False)
              )
              (1): TimeDependentSwish(
                (beta): Sequential(
                  (0): Linear(in_features=1, out_features=64, bias=True)
                  (1): Softplus(beta=1, threshold=20)
                  (2): Linear(in_features=64, out_features=64, bias=True)
                  (3): Softplus(beta=1, threshold=20)
                )
              )
              (2): ConcatLinear_v2(
                (_layer): Linear(in_features=64, out_features=64, bias=True)
                (_hyper_bias): Linear(in_features=1, out_features=64, bias=False)
              )
              (3): TimeDependentSwish(
                (beta): Sequential(
                  (0): Linear(in_features=1, out_features=64, bias=True)
                  (1): Softplus(beta=1, threshold=20)
                  (2): Linear(in_features=64, out_features=64, bias=True)
                  (3): Softplus(beta=1, threshold=20)
                )
              )
              (4): ConcatLinear_v2(
                (_layer): Linear(in_features=64, out_features=64, bias=True)
                (_hyper_bias): Linear(in_features=1, out_features=64, bias=False)
              )
              (5): TimeDependentSwish(
                (beta): Sequential(
                  (0): Linear(in_features=1, out_features=64, bias=True)
                  (1): Softplus(beta=1, threshold=20)
                  (2): Linear(in_features=64, out_features=64, bias=True)
                  (3): Softplus(beta=1, threshold=20)
                )
              )
              (6): ConcatLinear_v2(
                (_layer): Linear(in_features=64, out_features=2, bias=True)
                (_hyper_bias): Linear(in_features=1, out_features=2, bias=False)
              )
            )
          )
        )
      )
      (inst_flow): HypernetworkRadialFlow(
        (radial_flows): ModuleList(
          (0): RadialFlow()
          (1): RadialFlow()
          (2): RadialFlow()
          (3): RadialFlow()
        )
        (hypernet): Sequential(
          (0): Linear(in_features=19, out_features=128, bias=True)
          (1): ReLU(inplace=True)
          (2): Linear(in_features=128, out_features=128, bias=True)
          (3): ReLU(inplace=True)
          (4): Linear(in_features=128, out_features=16, bias=True)
        )
      )
    )
  )
)
2022-07-10 20:49:42,072 - Traceback (most recent call last):
  File "/home/cvmlserver/yujees/neural_stpp/train_stpp-eqjp_JCNF.py", line 167, in main
    _main(rank, world_size, args, savepath, logger)
  File "/home/cvmlserver/yujees/neural_stpp/train_stpp-eqjp_JCNF.py", line 433, in _main
    space_loglik, time_loglik = model(
…
