…
2022-06-16 20:41:31,290 - GeForce RTX 2080 Ti 	 Memory: 10.76GB
2022-06-16 20:41:33,615 - GeForce RTX 2080 Ti 	 Memory: 10.76GB
2022-06-16 20:41:35,251 - GeForce RTX 2080 Ti 	 Memory: 10.76GB
2022-06-16 20:41:46,206 - 950 training examples, 50 val examples, 50 test examples
2022-06-16 20:42:06,729 - DistributedDataParallel(
  (module): CombinedSpatiotemporalModel(
    (spatial_model): IndependentCNF(
      squash_time=False
      (cnf): TimeVariableCNF(
        method=dopri5, tol=0.0001, energy=0.0001, jacnorm=0.0001
        (func): SequentialDiffEq(
          (layers): ModuleList(
            (0): ConcatLinear_v2(
              (_layer): Linear(in_features=2, out_features=64, bias=True)
              (_hyper_bias): Linear(in_features=1, out_features=64, bias=False)
            )
            (1): TimeDependentSwish(
              (beta): Sequential(
                (0): Linear(in_features=1, out_features=64, bias=True)
                (1): Softplus(beta=1, threshold=20)
                (2): Linear(in_features=64, out_features=64, bias=True)
                (3): Softplus(beta=1, threshold=20)
              )
            )
            (2): ConcatLinear_v2(
              (_layer): Linear(in_features=64, out_features=64, bias=True)
              (_hyper_bias): Linear(in_features=1, out_features=64, bias=False)
            )
            (3): TimeDependentSwish(
              (beta): Sequential(
                (0): Linear(in_features=1, out_features=64, bias=True)
                (1): Softplus(beta=1, threshold=20)
                (2): Linear(in_features=64, out_features=64, bias=True)
                (3): Softplus(beta=1, threshold=20)
              )
            )
            (4): ConcatLinear_v2(
              (_layer): Linear(in_features=64, out_features=64, bias=True)
              (_hyper_bias): Linear(in_features=1, out_features=64, bias=False)
            )
            (5): TimeDependentSwish(
              (beta): Sequential(
                (0): Linear(in_features=1, out_features=64, bias=True)
                (1): Softplus(beta=1, threshold=20)
                (2): Linear(in_features=64, out_features=64, bias=True)
                (3): Softplus(beta=1, threshold=20)
              )
            )
            (6): ConcatLinear_v2(
              (_layer): Linear(in_features=64, out_features=2, bias=True)
              (_hyper_bias): Linear(in_features=1, out_features=2, bias=False)
            )
          )
        )
      )
    )
    (temporal_model): HomogeneousPoissonPointProcess()
  )
)
2022-06-16 21:39:20,063 - Iter 0 | Epoch 0 | LR 0.00100 | Time 3431.3 | Temporal -1.9347(-1.9347) | Spatial -3.0009(-3.0009) | GradNorm 18.94(18.94) | NFE 64 | Mem 3248.49 MB
