…
2022-07-08 19:07:03,201 - Found 4 CUDA devices.
2022-07-08 19:07:03,205 - GeForce RTX 2080 Ti 	 Memory: 10.76GB
2022-07-08 19:07:03,205 - GeForce RTX 2080 Ti 	 Memory: 10.76GB
2022-07-08 19:07:25,542 - 950 training examples, 50 val examples, 50 test examples
2022-07-08 19:11:56,032 - DistributedDataParallel(
  (module): CombinedSpatiotemporalModel(
    (spatial_model): IndependentCNF(
      squash_time=False
      (cnf): TimeVariableCNF(
        method=dopri5, tol=0.0001, energy=0.0001, jacnorm=0.0001
        (func): SequentialDiffEq(
          (layers): ModuleList(
            (0): ConcatLinear_v2(
              (_layer): Linear(in_features=2, out_features=64, bias=True)
              (_hyper_bias): Linear(in_features=1, out_features=64, bias=False)
            )
            (1): TimeDependentSwish(
              (beta): Sequential(
                (0): Linear(in_features=1, out_features=64, bias=True)
                (1): Softplus(beta=1, threshold=20)
                (2): Linear(in_features=64, out_features=64, bias=True)
                (3): Softplus(beta=1, threshold=20)
              )
            )
            (2): ConcatLinear_v2(
              (_layer): Linear(in_features=64, out_features=64, bias=True)
              (_hyper_bias): Linear(in_features=1, out_features=64, bias=False)
            )
            (3): TimeDependentSwish(
              (beta): Sequential(
                (0): Linear(in_features=1, out_features=64, bias=True)
                (1): Softplus(beta=1, threshold=20)
                (2): Linear(in_features=64, out_features=64, bias=True)
                (3): Softplus(beta=1, threshold=20)
              )
            )
            (4): ConcatLinear_v2(
              (_layer): Linear(in_features=64, out_features=64, bias=True)
              (_hyper_bias): Linear(in_features=1, out_features=64, bias=False)
            )
            (5): TimeDependentSwish(
              (beta): Sequential(
                (0): Linear(in_features=1, out_features=64, bias=True)
                (1): Softplus(beta=1, threshold=20)
                (2): Linear(in_features=64, out_features=64, bias=True)
                (3): Softplus(beta=1, threshold=20)
              )
            )
            (6): ConcatLinear_v2(
              (_layer): Linear(in_features=64, out_features=2, bias=True)
              (_hyper_bias): Linear(in_features=1, out_features=2, bias=False)
            )
          )
        )
      )
    )
    (temporal_model): HomogeneousPoissonPointProcess()
  )
)
