…
2022-06-16 15:14:49,404 - GeForce RTX 2080 Ti 	 Memory: 10.76GB
2022-06-16 15:14:49,404 - GeForce RTX 2080 Ti 	 Memory: 10.76GB
2022-06-16 15:14:49,404 - GeForce RTX 2080 Ti 	 Memory: 10.76GB
2022-06-16 15:14:53,759 - 950 training examples, 50 val examples, 50 test examples
2022-06-16 15:14:53,893 - DistributedDataParallel(
  (module): CombinedSpatiotemporalModel(
    (spatial_model): IndependentCNF(
      squash_time=False
      (cnf): TimeVariableCNF(
        method=dopri5, tol=0.0001, energy=0.0001, jacnorm=0.0001
        (func): SequentialDiffEq(
          (layers): ModuleList(
            (0): ConcatLinear_v2(
              (_layer): Linear(in_features=2, out_features=64, bias=True)
              (_hyper_bias): Linear(in_features=1, out_features=64, bias=False)
            )
            (1): TimeDependentSwish(
              (beta): Sequential(
                (0): Linear(in_features=1, out_features=64, bias=True)
                (1): Softplus(beta=1, threshold=20)
                (2): Linear(in_features=64, out_features=64, bias=True)
                (3): Softplus(beta=1, threshold=20)
              )
            )
            (2): ConcatLinear_v2(
              (_layer): Linear(in_features=64, out_features=64, bias=True)
              (_hyper_bias): Linear(in_features=1, out_features=64, bias=False)
            )
            (3): TimeDependentSwish(
              (beta): Sequential(
                (0): Linear(in_features=1, out_features=64, bias=True)
                (1): Softplus(beta=1, threshold=20)
                (2): Linear(in_features=64, out_features=64, bias=True)
                (3): Softplus(beta=1, threshold=20)
              )
            )
            (4): ConcatLinear_v2(
              (_layer): Linear(in_features=64, out_features=64, bias=True)
              (_hyper_bias): Linear(in_features=1, out_features=64, bias=False)
            )
            (5): TimeDependentSwish(
              (beta): Sequential(
                (0): Linear(in_features=1, out_features=64, bias=True)
                (1): Softplus(beta=1, threshold=20)
                (2): Linear(in_features=64, out_features=64, bias=True)
                (3): Softplus(beta=1, threshold=20)
              )
            )
            (6): ConcatLinear_v2(
              (_layer): Linear(in_features=64, out_features=2, bias=True)
              (_hyper_bias): Linear(in_features=1, out_features=2, bias=False)
            )
          )
        )
      )
    )
    (temporal_model): HomogeneousPoissonPointProcess()
  )
)
2022-06-16 15:14:54,799 - Iter 0 | Epoch 0 | LR 0.00100 | Time 0.9 | Temporal -1.9238(-1.9238) | Spatial -3.0494(-3.0494) | GradNorm 23.05(23.05) | NFE 70 | Mem 3247.48 MB
2022-06-16 15:14:55,215 - [Test] Iter 0 | Val Temporal -1.8448 | Val Spatial -2.9076 | Test Temporal -1.8406 | Test Spatial -2.7982
…
